The following modules were not unloaded:
  (Use "module --force purge" to unload all):

  1) 2023.01   2) StdEnv
/var/spool/slurmd/job16761155/slurm_script: line 10: cd: dlp/seb/: No such file or directory
----------------------------------------------------------------
        Layer (type)               Output Shape         Param #
================================================================
            Conv2d-1         [-1, 64, 120, 300]             640
         LeakyReLU-2         [-1, 64, 120, 300]               0
            Conv2d-3         [-1, 64, 120, 300]          36,928
         LeakyReLU-4         [-1, 64, 120, 300]               0
            Conv2d-5         [-1, 128, 60, 150]          73,856
         LeakyReLU-6         [-1, 128, 60, 150]               0
            Conv2d-7         [-1, 128, 60, 150]         147,584
         LeakyReLU-8         [-1, 128, 60, 150]               0
            Conv2d-9          [-1, 256, 30, 75]         295,168
        LeakyReLU-10          [-1, 256, 30, 75]               0
           Conv2d-11          [-1, 256, 30, 75]         590,080
        LeakyReLU-12          [-1, 256, 30, 75]               0
           Conv2d-13          [-1, 512, 15, 37]       1,180,160
        LeakyReLU-14          [-1, 512, 15, 37]               0
           Conv2d-15          [-1, 512, 15, 37]       2,359,808
        LeakyReLU-16          [-1, 512, 15, 37]               0
           Conv2d-17          [-1, 1024, 7, 18]       4,719,616
        LeakyReLU-18          [-1, 1024, 7, 18]               0
           Conv2d-19          [-1, 1024, 7, 18]       9,438,208
        LeakyReLU-20          [-1, 1024, 7, 18]               0
  ConvTranspose2d-21          [-1, 512, 15, 37]       2,097,664
           Conv2d-22          [-1, 512, 15, 37]       4,719,104
        LeakyReLU-23          [-1, 512, 15, 37]               0
           Conv2d-24          [-1, 512, 15, 37]       2,359,808
        LeakyReLU-25          [-1, 512, 15, 37]               0
  ConvTranspose2d-26          [-1, 256, 30, 75]         524,544
           Conv2d-27          [-1, 256, 30, 75]       1,179,904
        LeakyReLU-28          [-1, 256, 30, 75]               0
           Conv2d-29          [-1, 256, 30, 75]         590,080
        LeakyReLU-30          [-1, 256, 30, 75]               0
  ConvTranspose2d-31         [-1, 128, 60, 150]         131,200
           Conv2d-32         [-1, 128, 60, 150]         295,040
        LeakyReLU-33         [-1, 128, 60, 150]               0
           Conv2d-34         [-1, 128, 60, 150]         147,584
        LeakyReLU-35         [-1, 128, 60, 150]               0
  ConvTranspose2d-36         [-1, 64, 120, 300]          32,832
           Conv2d-37         [-1, 64, 120, 300]          73,792
        LeakyReLU-38         [-1, 64, 120, 300]               0
           Conv2d-39         [-1, 64, 120, 300]          36,928
        LeakyReLU-40         [-1, 64, 120, 300]               0
           Conv2d-41         [-1, 27, 120, 300]           1,755
================================================================
Total params: 31,032,283
Trainable params: 31,032,283
Non-trainable params: 0
----------------------------------------------------------------
Input size (MB): 0.14
Forward/backward pass size (MB): 307.72
Params size (MB): 118.38
Estimated Total Size (MB): 426.24
----------------------------------------------------------------
2025-04-22 17:38:46 - Starting Training
…
