…
Lmod has detected the following error: The following module(s) are unknown:
"PyTorch-bundle/2.1.2-foss-2023a-CUDA-12.1.1"

Please check the spelling or version number. Also try "module spider ..."
It is also possible your cache file is out-of-date; it may help to try:
  $ module --ignore_cache load "PyTorch-bundle/2.1.2-foss-2023a-CUDA-12.1.1"

Also make sure that all modulefiles written in TCL start with the string
#%Module



----------------------------------------------------------------
        Layer (type)               Output Shape         Param #
================================================================
            Conv2d-1         [-1, 32, 120, 300]             320
              ReLU-2         [-1, 32, 120, 300]               0
            Conv2d-3          [-1, 64, 60, 150]          18,496
              ReLU-4          [-1, 64, 60, 150]               0
            Conv2d-5          [-1, 128, 30, 75]          73,856
              ReLU-6          [-1, 128, 30, 75]               0
            Conv2d-7          [-1, 256, 15, 37]         295,168
              ReLU-8          [-1, 256, 15, 37]               0
            Conv2d-9           [-1, 512, 7, 18]       1,180,160
             ReLU-10           [-1, 512, 7, 18]               0
  ConvTranspose2d-11          [-1, 256, 15, 37]         524,544
           Conv2d-12          [-1, 256, 15, 37]       1,179,904
             ReLU-13          [-1, 256, 15, 37]               0
  ConvTranspose2d-14          [-1, 128, 30, 75]         131,200
           Conv2d-15          [-1, 128, 30, 75]         295,040
             ReLU-16          [-1, 128, 30, 75]               0
  ConvTranspose2d-17          [-1, 64, 60, 150]          32,832
           Conv2d-18          [-1, 64, 60, 150]          73,792
             ReLU-19          [-1, 64, 60, 150]               0
  ConvTranspose2d-20         [-1, 32, 120, 300]           8,224
           Conv2d-21         [-1, 32, 120, 300]          18,464
             ReLU-22         [-1, 32, 120, 300]               0
           Conv2d-23         [-1, 27, 120, 300]             891
================================================================
Total params: 3,832,891
Trainable params: 3,832,891
Non-trainable params: 0
----------------------------------------------------------------
Input size (MB): 0.14
Forward/backward pass size (MB): 90.72
Params size (MB): 14.62
Estimated Total Size (MB): 105.48
----------------------------------------------------------------
2025-04-22 19:04:34 - Starting Training
…
